…
sserstein Distance + Gradiant Penality) for the Discriminator.\n\n### Generator Architecture\n\nThe thought process behind this network architecture is not well informed. The inuition is that we take an image, extract its features with Conv layers, turn it into some intermediate format within the Linear layers, then use that intermediate format to generate a new image using the ConvTranspose layers.\n\nThe result is good, but it's not ideal. Currently working on identifying what layers are actually contributing and determining if there are layers that are unnecessary.\n\n```\nSequential(\n  (0): Conv2d(1, 1024, kernel_size=(4, 4), stride=(2, 2), padding=(1, 1))\n  (1): LeakyReLU(negative_slope=0.2)\n  (2): Conv2d(1024, 512, kernel_size=(4, 4), stride=(2, 2), padding=(1, 1))\n  (3): LeakyReLU(negative_slope=0.2)\n  (4): Conv2d(512, 256, kernel_size=(4, 4), stride=(2, 2), padding=(1, 1))\n  (5): LeakyReLU(negative_slope=0.2)\n  (6): Flatten()\n  (7): Linear(in_features=1024, out_features=256, bias=True)\n  (8): ReLU()\n  (9): Linear(in_features=256, out_features=5120, bias=True)\n  (10): ReLU()\n  (11): Unflatten()\n  (12): BatchNorm2d(256, eps=1e-05, momentum=0.1, affine=True, track_running_stats=True)\n  (13): ConvTranspose2d(256, 128, kernel_size=(4, 4), stride=(2, 2), padding=(1, 1))\n  (14): BatchNorm2d(128, eps=1e-05, momentum=0.1, affine=True, track_running_stats=True)\n  (15): ReLU()\n  (16): ConvTranspose2d(128, 64, kernel_size=(4, 4), stride=(2, 2), padding=(1, 1))\n  (17): BatchNorm2d(64, eps=1e-05, momentum=0.1, affine=True, track_running_stats=True)\n  (18): ReLU()\n  (19): ConvTranspose2d(64, 1, kernel_size=(4, 4), stride=(2, 2), padding=(1, 1))\n  (20): Sigmoid()\n)\n```\n\n### Discriminator Architecture\n\nThis follows DC-GAN. No magic, or added things here. As with the linked papers from above, we do not apply batch normalization which helps with training.\n\n```\n(Sequential(\n   (0): Conv2d(1, 16, kernel_size=(4, 4), stride=(2, 2), padding=(1, 1))\n   (1): LeakyReLU(negative_slope=0.2)\n   (2): Conv2d(16, 32, kernel_size=(4, 4), stride=(2, 2), padding=(1, 1))\n   (3): LeakyReLU(negative_slope=0.2)\n   (4): Conv2d(32, 64, kernel_size=(4, 4), stride=(2, 2), padding=(1, 1))\n   (5): LeakyReLU(negative_slope=0.2)\n   (6): Conv2d(64, 128, kernel_size=(4, 4), stride=(2, 2), padding=(1, 1))\n   (7): LeakyReLU(negative_slope=0.2)\n   (8): Flatten()\n   (9): Linear(in_features=640, out_features=1, bias=True)\n   (10): Sigmoid()\n ),\n```\n\n## Results\n\nThis was by no means an academic study nor was it an attempt to push the boundaries of current research, but the results were good.\n\nThis project used the data set from [MC-GAN](https://github.com/azadis/MC-GAN) which uses a variety of different fonts and samples. In some cases, the samples are all upperca
…
