{
  "arxivLinks": {
    "confidence": [
      1.0
    ],
    "excerpt": [
      "https://arxiv.org/abs/1709.01507"
    ],
    "technique": "Regular expression"
  },
  "citation": [
    {
      "confidence": [
        0.8444342525991423,
        0.8444342525991423,
        0.8444342525991423,
        0.8444342525991423,
        0.8444342525991423,
        0.8444342525991423,
        0.8444342525991423,
        0.8444342525991423,
        0.8444342525991423
      ],
      "excerpt": "conv2d (Conv2D)                (None, 64, 64, 32)  288        input_1[0][0]                    \nbatch_normalization (BatchNorm (None, 64, 64, 32)  128        conv2d[0][0]                     \nre_lu (ReLU)                   (None, 64, 64, 32)  0          batch_normalization[0][0]        \nconv2d_1 (Conv2D)              (None, 64, 64, 32)  9216       re_lu[0][0]                      \nbatch_normalization_1 (BatchNo (None, 64, 64, 32)  128        conv2d_1[0][0]                   \nre_lu_1 (ReLU)                 (None, 64, 64, 32)  0          batch_normalization_1[0][0]      \nconv2d_2 (Conv2D)              (None, 64, 64, 32)  9216       re_lu_1[0][0]                    \nbatch_normalization_2 (BatchNo (None, 64, 64, 32)  128        conv2d_2[0][0]                   \nre_lu_2 (ReLU)                 (None, 64, 64, 32)  0          batch_normalization_2[0][0]      \n",
      "technique": "Supervised classification"
    }
  ],
  "codeRepository": {
    "confidence": [
      1.0
    ],
    "excerpt": "https://github.com/ifrit98/bengaliai",
    "technique": "GitHub API"
  },
  "dateCreated": {
    "confidence": [
      1.0
    ],
    "excerpt": "2020-01-03T01:44:03Z",
    "technique": "GitHub API"
  },
  "dateModified": {
    "confidence": [
      1.0
    ],
    "excerpt": "2020-02-23T22:39:01Z",
    "technique": "GitHub API"
  },
  "description": [
    {
      "confidence": [
        0.8577302739126875,
        0.8577302739126875
      ],
      "excerpt": "grapheme_root (Dense)          (None, 168)         86184      dropout[0][0]                    \nconsonant (Dense)              (None, 7)           3591       dropout[0][0] \n",
      "technique": "Supervised classification"
    },
    {
      "confidence": [
        1.0
      ],
      "excerpt": "Classification of Bengali handwritten graphemes",
      "technique": "GitHub API"
    }
  ],
  "downloadUrl": {
    "confidence": [
      1.0
    ],
    "excerpt": "https://github.com/ifrit98/bengaliai/releases",
    "technique": "GitHub API"
  },
  "forks_count": {
    "confidence": [
      1.0
    ],
    "excerpt": {
      "count": 0,
      "date": "Wed, 08 Dec 2021 19:25:25 GMT"
    },
    "technique": "GitHub API"
  },
  "forks_url": {
    "confidence": [
      1.0
    ],
    "excerpt": "https://api.github.com/repos/ifrit98/bengaliai/forks",
    "technique": "GitHub API"
  },
  "fullName": {
    "confidence": [
      1.0
    ],
    "excerpt": "ifrit98/bengaliai",
    "technique": "GitHub API"
  },
  "invocation": [
    {
      "confidence": [
        0.8155282724802132
      ],
      "excerpt": "add (Add)                      (None, 31, 31, 64)  0          multiply[0][0]                 \n",
      "technique": "Supervised classification"
    },
    {
      "confidence": [
        0.8366657942264955
      ],
      "excerpt": "multiply_3 (Multiply)          (None, 31, 31, 128) 0          activation_3[0][0]             \n",
      "technique": "Supervised classification"
    },
    {
      "confidence": [
        0.810637040383011
      ],
      "excerpt": "add_3 (Add)                    (None, 31, 31, 128) 0          multiply_3[0][0]               \n",
      "technique": "Supervised classification"
    },
    {
      "confidence": [
        0.8366657942264955
      ],
      "excerpt": "multiply_4 (Multiply)          (None, 31, 31, 128) 0          activation_4[0][0]             \n",
      "technique": "Supervised classification"
    },
    {
      "confidence": [
        0.810637040383011
      ],
      "excerpt": "add_4 (Add)                    (None, 31, 31, 128) 0          multiply_4[0][0]               \n",
      "technique": "Supervised classification"
    },
    {
      "confidence": [
        0.8366657942264955
      ],
      "excerpt": "multiply_5 (Multiply)          (None, 31, 31, 128) 0          activation_5[0][0]             \n",
      "technique": "Supervised classification"
    },
    {
      "confidence": [
        0.810637040383011
      ],
      "excerpt": "add_5 (Add)                    (None, 31, 31, 128) 0          multiply_5[0][0]               \n",
      "technique": "Supervised classification"
    },
    {
      "confidence": [
        0.8934745846565956
      ],
      "excerpt": "Total params: 3,651,662 \n",
      "technique": "Supervised classification"
    }
  ],
  "issueTracker": {
    "confidence": [
      1.0
    ],
    "excerpt": "https://api.github.com/repos/ifrit98/bengaliai/issues{/number}",
…
