…
Here we have used for training and validation purposes only the 50000 images originally meant for training. [Stratified K-Folds cross-validation](https://scikit-learn.org/stable/modules/generated/sklearn.model_selection.StratifiedKFold.html) is used to split the data so that the percentage of samples for each class is preserved. Several other reported implementations use the data as it is given and use the given 10000 sample testing set straight for validation. Instead we use the 10000 sample test set for evaluating our trained model.


## Model

We have made a PyTorch implementation of [Sergey Zagoruyko](https://github.com/szagoruyko/cifar.torch) VGG like network with BatchNormalization and Dropout for the task.

```
DataParallel(
  (module): VGGBNDrop(
    (features): Sequential(
      (0): Conv2d(3, 64, kernel_size=(3, 3), stride=(1, 1), padding=(1, 1))
      (1): BatchNorm2d(64, eps=1e-05, momentum=0.1, affine=True, track_running_stats=True)
      (2): ReLU(inplace)
      (3): Dropout(p=0.3)
      (4): Conv2d(64, 64, kernel_size=(3, 3), stride=(1, 1), padding=(1, 1))
      (5): BatchNorm2d(64, eps=1e-05, momentum=0.1, affine=True, track_running_stats=True)
      (6): ReLU(inplace)
      (7): MaxPool2d(kernel_size=2, stride=2, padding=0, dilation=1, ceil_mode=True)
      (8): Conv2d(64, 128, kernel_size=(3, 3), stride=(1, 1), padding=(1, 1))
      (9): BatchNorm2d(128, eps=1e-05, momentum=0.1, affine=True, track_running_stats=True)
      (10): ReLU(inplace)
      (11): Dropout(p=0.4)
      (12): Conv2d(128, 128, kernel_size=(3, 3), stride=(1, 1), padding=(1, 1))
      (13): BatchNorm2d(128, eps=1e-05, momentum=0.1, affine=True, track_running_stats=True)
      (14): ReLU(inplace)
      (15): MaxPool2d(kernel_size=2, stride=2, padding=0, dilation=1, ceil_mode=True)
      (16): Conv2d(128, 256, kernel_size=(3, 3), stride=(1, 1), padding=(1, 1))
      (17): BatchNorm2d(256, eps=1e-05, momentum=0.1, affine=True, track_running_stats=True)
      (18): ReLU(inplace)
      (19): Dropout(p=0.4)
      (20): Conv2d(256, 256, kernel_size=(3, 3), stride=(1, 1), padding=(1, 1))
      (21): BatchNorm2d(256, eps=1e-05, momentum=0.1, affine=True, track_running_stats=True)
      (22): ReLU(inplace)
      (23): Dropout(p=0.4)
      (24): Conv2d(256, 256, kernel_size=(3, 3), stride=(1, 1), padding=(1, 1))
      (25): BatchNorm2d(256, eps=1e-05, momentum=0.1, affine=True, track_running_stats=True)
      (26): ReLU(inplace)
      (27): MaxPool2d(kernel_size=2, stride=2, padding=0, dilation=1, ceil_mode=True)
      (28): Conv2d(256, 512, kernel_size=(3, 3), stride=(1, 1), padding=(1, 1))
      (29): BatchNorm2d(512, eps=1e-05, momentum=0.1, affine=True, track_running_stats=True)
      (30): ReLU(inplace)
      (31): Dropout(p=0.4)
      (32): Conv2d(512, 512, kernel_size=(3, 3), stride=(1, 1), padding=(1, 1))
      (33): BatchNorm2d(512, eps=1e-05, momentum=0.1, affine=True, track_running_stats=True)
      (34): ReLU(inplace)
      (35): Dropout(p=0.4)
      (36): Conv2d(512, 512, kernel_size=(3, 3), stride=(1, 1), padding=(1, 1))
      (37): BatchNorm2d(512, eps=1e-05, momentum=0.1, affine=True, track_running_stats=True)
      (38): ReLU(inplace)
      (39): MaxPool2d(kernel_size=2, stride=2, padding=0, dilation=1, ceil_mode=True)
      (40): Conv2d(512, 512, kernel_size=(3, 3), stride=(1, 1), padding=(1, 1))
      (41): BatchNorm2d(512, eps=1e-05, momentum=0.1, affine=True, track_running_stats=True)
      (42): ReLU(inplace)
      (43): Dropout(p=0.4)
      (44): Conv2d(512, 512, kernel_size=(3, 3), stride=(1, 1), padding=(1, 1))
      (45): BatchNorm2d(512, eps=1e-05, momentum=0.1, affine=True, track_running_stats=True)
      (46): ReLU(inplace)
      (47): Dropout(p=0.4)
      (48): Conv2d(512, 512, kernel_size=(3, 3), stride=(1, 1), padding=(1, 1))
      (49): BatchNorm2d(512, eps=1e-05, momentum=0.1, affine=True, track_running_stats=True)
      (50): ReLU(inplace)
      (51): MaxPool2d(kernel_size=2, stride=2, padding=0, dilation=1, ceil_mode=True)
    )
    (classifier): Sequential(
      (0): Dropout(p=0.5)
      (1): Linear(in_features=512, out_features=512, bias=True)
      (2): BatchNorm1d(512, eps=1e-05, momentum=0.1, affine=True, track_running_stats=True)
      (3): ReLU(inplace)
      (4): Dropout(p=0.5)
      (5): Linear(in_features=512, out_features=10, bias=True)
    )
  )
)
```


## Data Augmentations

In this implementation we only use [horizontal flips](https://mipt-oulu.github.io/solt/transforms.html#solt.transforms.RandomFlip). We pad the images into size `34x34` using [reflective padding](https://mipt-oulu.github.io/solt/transforms.html#solt.transforms.PadTransform) and then crop the images back into size 
…
