…
      "https://arxiv.org/abs/1706.05587\n\nIn this article, dilated convolution is mainly used to extract more compact features by removing the downsampling operation of the last few layers of the network and the upsampling operation of the corresponding filter kernel, without adding new additional learning parameters.\n\n![goingdeeper](https://github.com/akkaze/cnn-without-any-downsampling/blob/master/assets/goingdeeper.png"
    ],
    "technique": "Regular expression"
  },
  "citation": [
    {
      "confidence": [
        0.8207940084462922
      ],
      "excerpt": "batch_normalization (BatchNo (None, 32, 32, 16)        64 \n",
      "technique": "Supervised classification"
    },
    {
      "confidence": [
        0.8444342525991423,
        0.8444342525991423,
        0.8444342525991423,
        0.9559715772848645,
        0.9559715772848645,
        0.9559715772848645,
        0.8955886365383559,
        0.8955886365383559,
        0.8955886365383559
      ],
      "excerpt": "conv2d_1 (Conv2D)            (None, 32, 32, 24)        3480 \nbatch_normalization_1 (Batch (None, 32, 32, 24)        96 \nactivation_1 (Activation)    (None, 32, 32, 24)        0 \nconv2d_2 (Conv2D)            (None, 32, 32, 32)        6944 \nbatch_normalization_2 (Batch (None, 32, 32, 32)        128 \nactivation_2 (Activation)    (None, 32, 32, 32)        0 \nconv2d_3 (Conv2D)            (None, 32, 32, 48)        13872 \nbatch_normalization_3 (Batch (None, 32, 32, 48)        192 \nactivation_3 (Activation)    (None, 32, 32, 48)        0 \n",
      "technique": "Supervised classification"
    },
    {
      "confidence": [
        0.9120203064182911
      ],
      "excerpt": "dense (Dense)                (None, 10)                490 \n",
      "technique": "Supervised classification"
    },
    {
      "confidence": [
        0.9030859728368266
      ],
      "excerpt": "| 10  | 0.9200 |0.6346| \n",
      "technique": "Supervised classification"
    },
    {
      "confidence": [
        0.8356013927728488
      ],
      "excerpt": "| 30  | 0.7293 |0.7193| \n",
      "technique": "Supervised classification"
    },
    {
      "confidence": [
        0.8955886365383559
      ],
      "excerpt": "input_1 (InputLayer)            [(None, 32, 32, 3)]  0 \n",
      "technique": "Supervised classification"
    },
    {
      "confidence": [
        0.8207940084462922
      ],
      "excerpt": "batch_normalization (BatchNorma (None, 32, 32, 16)   64          conv2d[0][0] \n",
      "technique": "Supervised classification"
    },
    {
      "confidence": [
        0.8207940084462922
      ],
      "excerpt": "batch_normalization_1 (BatchNor (None, 32, 32, 16)   64          conv2d_1[0][0] \n",
      "technique": "Supervised classification"
    },
    {
      "confidence": [
        0.8207940084462922
      ],
      "excerpt": "batch_normalization_2 (BatchNor (None, 32, 32, 16)   64          conv2d_2[0][0] \n",
      "technique": "Supervised classification"
    },
    {
      "confidence": [
        0.8207940084462922
      ],
      "excerpt": "batch_normalization_3 (BatchNor (None, 32, 32, 16)   64          conv2d_3[0][0] \n",
      "technique": "Supervised classification"
    },
    {
      "confidence": [
        0.8207940084462922
      ],
      "excerpt": "batch_normalization_4 (BatchNor (None, 32, 32, 16)   64          conv2d_4[0][0] \n",
      "technique": "Supervised classification"
    },
    {
      "confidence": [
        0.8207940084462922
      ],
      "excerpt": "batch_normalization_5 (BatchNor (None, 32, 32, 16)   64          conv2d_5[0][0] \n",
      "technique": "Supervised classification"
    },
    {
      "confidence": [
        0.8207940084462922
      ],
      "excerpt": "batch_normalization_6 (BatchNor (None, 32, 32, 16)   64          conv2d_6[0][0] \n",
      "technique": "Supervised classification"
    },
    {
      "confidence": [
        0.8207940084462922
      ],
      "excerpt": "batch_normalization_7 (BatchNor (None, 32, 32, 16)   64          conv2d_7[0][0] \n",
      "technique": "Supervised classification"
    },
    {
      "confidence": [
        0.8207940084462922
      ],
      "excerpt": "batch_normalization_8 (BatchNor (None, 32, 32, 16)   64          conv2d_8[0][0] \n",
      "technique": "Supervised classification"
    },
    {
      "confidence": [
        0.8207940084462922
      ],
      "excerpt": "batch_normalization_9 (BatchNor (None, 32, 32, 16)   64          conv2d_9[0][0] \n",
      "technique": "Supervised classification"
    },
    {
      "confidence": [
        0.8207940084462922
      ],
      "excerpt": "batch_normalization_10 (BatchNo (None, 32, 32, 16)   64          conv2d_10[0][0] \n",
      "technique": "Supervised classification"
    },
    {
      "confidence": [
        0.8207940084462922
      ],
      "excerpt": "batch_normalization_11 (BatchNo (None, 32, 32, 16)   64          conv2d_11[0][0] \n",
      "technique": "Supervised classification"
    },
    {
      "confidence": [
        0.8207940084462922
      ],
      "excerpt": "batch_normalization_12 (BatchNo (None, 32, 32, 16)   64          conv2d_12[0][0] \n",
      "technique": "Supervised classification"
    },
    {
      "confidence": [
        0.9559715772848645,
        0.9559715772848645,
        0.9559715772848645,
        0.9559715772848645,
        0.9559715772848645,
        0.9559715772848645,
        0.9015781078351486
      ],
      "excerpt": "conv2d_13 (Conv2D)              (None, 32, 32, 32)   4640        activation_12[0][0] \nbatch_normalization_13 (BatchNo (None, 32, 32, 32)   128         conv2d_13[0][0] \nactivation_13 (Activation)      (None, 32, 32, 32)   0           batch_normalization_13[0][0] \nconv2d_14 (Conv2D)              (None, 32, 32, 32)   9248        activation_13[0][0] \nconv2d_15 (Conv2D)              (None, 32, 32, 32)   4640        activation_12[0][0] \nbatch_normalization_14 (BatchNo (None, 32, 32, 32)   128         conv2d_14[0][0] \nadd_6 (Add)                     (None, 32, 32, 32)   0           conv2d_15[0][0] \n",
      "technique": "Supervised classification"
    },
    {
      "confidence": [
        0.9559715772848645,
        0.9559715772848645,
        0.9559715772848645,
        0.9559715772848645,
        0.9559715772848645,
        0.9559715772848645,
        0.9015781078351486
      ],
      "excerpt": "activation_14 (Activation)      (None, 32, 32, 32)   0           add_6[0][0] \nconv2d_16 (Conv2D)              (None, 32, 32, 32)   9248        activation_14[0][0] \nbatch_normalization_15 (BatchNo (None, 32, 32, 32)   128         conv2d_16[0][0] \nactivation_15 (Activation)      (None, 32, 32, 32)   0           batch_normalization_15[0][0] \nconv2d_17 (Conv2D)              (None, 32, 32, 32)   9248        activation_15[0][0] \nbatch_normalization_16 (BatchNo (None, 32, 32, 32)   128         conv2d_17[0][0] \nadd_7 (Add)                     (None, 32, 32, 32)   0           activation_14[0][0] \n",
      "technique": "Supervised classification"
    },
    {
      "confidence": [
        0.9559715772848645,
        0.9559715772848645,
        0.9559715772848645,
        0.9559715772848645,
        0.9559715772848645,
        0.9559715772848645,
        0.9015781078351486
      ],
      "excerpt": "activation_16 (Activation)      (None, 32, 32, 32)   0           add_7[0][0] \nconv2d_18 (Conv2D)              (None, 32, 32, 32)   9248        activation_16[0][0] \nbatch_normalization_17 (BatchNo (None, 32, 32, 32)   128         conv2d_18[0][0] \nactivation_17 (Activation)      (None, 32, 32, 32)   0           batch_normalization_17[0][0] \nconv2d_19 (Conv2D)              (None, 32, 32, 32)   9248        activation_17[0][0] \nbatch_normalization_18 (BatchNo (None, 32, 32, 32)   128         conv2d_19[0][0] \nadd_8 (Add)                     (None, 32, 32, 32)   0           activation_16[0][0] \n",
      "technique": "Supervised classification"
    },
    {
      "confidence": [
        0.9559715772848645,
        0.9559715772848645,
        0.9559715772848645,
        0.9559715772848645,
        0.9559715772848645,
        0.9559715772848645,
        0.9015781078351486
      ],
      "excerpt": "activation_18 (Activation)      (None, 32, 32, 32)   0           add_8[0][0] \nconv2d_20 (Conv2D)              (None, 32, 32, 32)   9248        activation_18[0][0] \nbatch_normalization_19 (BatchNo (None, 32, 32, 32)   128         conv2d_20[0][0] \nactivation_19 (Activation)      (None, 32, 32, 32)   0           batch_normalization_19[0][0] \nconv2d_21 (Conv2D)              (None, 32, 32, 32)   9248        activation_19[0][0] \nbatch_normalization_20 (BatchNo (None, 32, 32, 32)   128         conv2d_21[0][0] \nadd_9 (Add)                     (None, 32, 32, 32)   0           activation_18[0][0] \n",
      "technique": "Supervised classification"
    },
    {
      "confidence": [
        0.9559715772848645,
        0.9559715772848645,
        0.9559715772848645,
        0.9559715772848645,
        0.9559715772848645,
        0.9559715772848645,
        0.9015781078351486
      ],
      "excerpt": "activation_20 (Activation)      (None, 32, 32, 32)   0           add_9[0][0] \nconv2d_22 (Conv2D)              (None, 32, 32, 32)   9248        activation_20[0][0] \nbatch_normalization_21 (BatchNo (None, 32, 32, 32)   128         conv2d_22[0][0] \nactivation_21 (Activation)      (None, 32, 32, 32)   0           batch_normalization_21[0][0] \nconv2d_23 (Conv2D)              (None, 32, 32, 32)   9248        activation_21[0][0] \nbatch_normalization_22 (BatchNo (None, 32, 32, 32)   128         conv2d_23[0][0] \nadd_10 (Add)                    (None, 32, 32, 32)   0           activation_20[0][0] \n",
      "technique": "Supervised classification"
    },
    {
      "confidence": [
        0.9559715772848645,
        0.9559715772848645,
        0.9559715772848645,
        0.9559715772848645,
        0.9559715772848645,
        0.9559715772848645,
        0.9015781078351486
      ],
      "excerpt": "activation_22 (Activation)      (None, 32, 32, 32)   0           add_10[0][0] \nconv2d_24 (Conv2D)              (None, 32, 32, 32)   9248        activation_22[0][0] \nbatch_normalization_23 (BatchNo (None, 32, 32, 32)   128         conv2d_24[0][0] \nactivation_23 (Activation)      (None, 32, 32, 32)   0           batch_normalization_23[0][0] \nconv2d_25 (Conv2D)              (None, 32, 32, 32)   9248        activation_23[0][0] \nbatch_normalization_24 (BatchNo (None, 32, 32, 32)   128         conv2d_25[0][0] \nadd_11 (Add)                    (None, 32, 32, 32)   0           activation_22[0][0] \n",
      "technique": "Supervised classification"
    },
    {
      "confidence": [
        0.9559715772848645,
        0.9156566588472104,
        0.9156566588472104,
        0.9156566588472104,
        0.9156566588472104,
        0.9156566588472104,
        0.9156566588472104,
        0.8207940084462922
      ],
      "excerpt": "activation_24 (Activation)      (None, 32, 32, 32)   0           add_11[0][0] \nconv2d_26 (Conv2D)              (None, 32, 32, 64)   18496       activation_24[0][0] \nbatch_normalization_25 (BatchNo (None, 32, 32, 64)   256         conv2d_26[0][0] \nactivation_25 (Activation)      (None, 32, 32, 64)   0           batch_normalization_25[0][0] \nconv2d_27 (Conv2D)              (None, 32, 32, 64)   36928       activation_25[0][0] \nconv2d_28 (Conv2D)              (None, 32, 32, 64)   18496       activation_24[0][0] \nbatch_normalization_26 (BatchNo (None, 32, 32, 64)   256         conv2d_27[0][0] \nadd_12 (Add)                    (None, 32, 32, 64)   0           conv2d_28[0][0] \n",
      "technique": "Supervised classification"
    },
    {
      "confidence": [
        0.9156566588472104,
        0.9156566588472104,
        0.9156566588472104,
        0.9156566588472104,
        0.9156566588472104,
        0.9156566588472104,
        0.8207940084462922
      ],
      "excerpt": "activation_26 (Activation)      (None, 32, 32, 64)   0           add_12[0][0] \nconv2d_29 (Conv2D)              (None, 32, 32, 64)   36928       activation_26[0][0] \nbatch_normalization_27 (BatchNo (None, 32, 32, 64)   256         conv2d_29[0][0] \nactivation_27 (Activation)      (None, 32, 32, 64)   0           batch_normalization_27[0][0] \nconv2d_30 (Conv2D)              (None, 32, 32, 64)   36928       activation_27[0][0] \nbatch_normalization_28 (BatchNo (None, 32, 32, 64)   256         conv2d_30[0][0] \nadd_13 (Add)                    (None, 32, 32, 64)   0           activation_26[0][0] \n",
      "technique": "Supervised classification"
    },
    {
      "confidence": [
        0.9156566588472104,
        0.9156566588472104,
        0.9156566588472104,
        0.9156566588472104,
        0.9156566588472104,
        0.9156566588472104,
        0.8207940084462922
      ],
      "excerpt": "activation_28 (Activation)      (None, 32, 32, 64)   0           add_13[0][0] \nconv2d_31 (Conv2D)              (None, 32, 32, 64)   36928       activation_28[0][0] \nbatch_normalization_29 (BatchNo (None, 32, 32, 64)   256         conv2d_31[0][0] \nactivation_29 (Activation)      (None, 32, 32, 64)   0           batch_normalization_29[0][0] \nconv2d_32 (Conv2D)              (None, 32, 32, 64)   36928       activation_29[0][0] \nbatch_normalization_30 (BatchNo (None, 32, 32, 64)   256         conv2d_32[0][0] \nadd_14 (Add)                    (None, 32, 32, 64)   0           activation_28[0][0] \n",
      "technique": "Supervised classification"
    },
    {
      "confidence": [
        0.9156566588472104,
        0.9156566588472104,
        0.9156566588472104,
        0.9156566588472104,
        0.9156566588472104,
        0.9156566588472104,
        0.8207940084462922
      ],
      "excerpt": "activation_30 (Activation)      (None, 32, 32, 64)   0           add_14[0][0] \nconv2d_33 (Conv2D)              (None, 32, 32, 64)   36928       activation_30[0][0] \nbatch_normalization_31 (BatchNo (None, 32, 32, 64)   256         conv2d_33[0][0] \nactivation_31 (Activation)      (None, 32, 32, 64)   0           batch_normalization_31[0][0] \nconv2d_34 (Conv2D)              (None, 32, 32, 64)   36928       activation_31[0][0] \nbatch_normalization_32 (BatchNo (None, 32, 32, 64)   256         conv2d_34[0][0] \nadd_15 (Add)                    (None, 32, 32, 64)   0           activation_30[0][0] \n",
      "technique": "Supervised classification"
    },
    {
      "confidence": [
        0.9156566588472104,
        0.9156566588472104,
        0.9156566588472104,
        0.9156566588472104,
        0.9156566588472104,
        0.9156566588472104,
        0.8207940084462922
      ],
      "excerpt": "activation_32 (Activation)      (None, 32, 32, 64)   0           add_15[0][0] \nconv2d_35 (Conv2D)              (None, 32, 32, 64)   36928       activation_32[0][0] \nbatch_normalization_33 (BatchNo (None, 32, 32, 64)   256         conv2d_35[0][0] \nactivation_33 (Activation)      (None, 32, 32, 64)   0           batch_normalization_33[0][0] \nconv2d_36 (Conv2D)              (None, 32, 32, 64)   36928       activation_33[0][0] \nbatch_normalization_34 (BatchNo (None, 32, 32, 64)   256         conv2d_36[0][0] \nadd_16 (Add)                    (None, 32, 32, 64)   0           activation_32[0][0] \n",
      "technique": "Supervised classification"
    },
    {
      "confidence": [
        0.9156566588472104,
        0.9156566588472104,
        0.9156566588472104,
        0.9156566588472104,
        0.9156566588472104,
        0.9156566588472104,
        0.8207940084462922
      ],
      "excerpt": "activation_34 (Activation)      (None, 32, 32, 64)   0           add_16[0][0] \nconv2d_37 (Conv2D)              (None, 32, 32, 64)   36928       activation_34[0][0] \nbatch_normalization_35 (BatchNo (None, 32, 32, 64)   256         conv2d_37[0][0] \nactivation_35 (Activation)      (None, 32, 32, 64)   0           batch_normalization_35[0][0] \nconv2d_38 (Conv2D)              (None, 32, 32, 64)   36928       activation_35[0][0] \nbatch_normalization_36 (BatchNo (None, 32, 32, 64)   256         conv2d_38[0][0] \nadd_17 (Add)                    (None, 32, 32, 64)   0           activation_34[0][0] \n",
      "technique": "Supervised classification"
    },
    {
      "confidence": [
        0.9156566588472104
      ],
      "excerpt": "activation_36 (Activation)      (None, 32, 32, 64)   0           add_17[0][0] \n",
      "technique": "Supervised classification"
    },
    {
      "confidence": [
        0.9823492606796287
      ],
      "excerpt": "Similar ideas first appeared in paper of deeplab, [Rethinking Atrous Convolution for Semantic Image Segmentation]: https://arxiv.org/abs/1706.05587 \n",
      "technique": "Supervised classification"
    }
  ],
  "codeRepository": {
    "confidence": [
…
