…
      "excerpt": "```python\n\"\"\" Basic example: using CharacterBERT for binary classification \"\"\"\nfrom transformers import BertForSequenceClassification, BertConfig\nfrom modeling.character_bert import CharacterBertModel\n\n#:#:#:#: LOADING BERT FOR CLASSIFICATION #:#:#:#:\n\nconfig = BertConfig.from_pretrained('bert-base-uncased', num_labels=2)  #: binary classification\nmodel = BertForSequenceClassification(config=config)\n\nmodel.bert.embeddings.word_embeddings  #: wordpiece embeddings\n>>> Embedding(30522, 768, padding_idx=0)\n\n#:#:#:#: REPLACING BERT WITH CHARACTER_BERT #:#:#:#:\n\ncharacter_bert_model = CharacterBertModel.from_pretrained(\n    './pretrained-models/medical_character_bert/')\nmodel.bert = character_bert_model\n\nmodel.bert.embeddings.word_embeddings  #: wordpieces are replaced with a CharacterCNN\n>>> CharacterCNN(\n        (char_conv_0): Conv1d(16, 32, kernel_size=(1,), stride=(1,))\n        (char_conv_1): Conv1d(16, 32, kernel_size=(2,), stride=(1,))\n        (char_conv_2): Conv1d(16, 64, kernel_size=(3,), stride=(1,))\n        (char_conv_3): Conv1d(16, 128, kernel_size=(4,), stride=(1,))\n        (char_conv_4): Conv1d(16, 256, kernel_size=(5,), stride=(1,))\n        (char_conv_5): Conv1d(16, 512, kernel_size=(6,), stride=(1,))\n        (char_conv_6): Conv1d(16, 1024, kernel_size=(7,), stride=(1,))\n        (_highways): Highway(\n        (_layers): ModuleList(\n            (0): Linear(in_features=2048, out_features=4096, bias=True)\n            (1): Linear(in_features=2048, out_features=4096, bias=True)\n        )\n        )\n        (_projection): Linear(in_features=2048, out_features=768, bias=True)\n    )\n\n#:#:#:#: PREPARING RAW TEXT #:#:#:#:\n\nfrom transformers import BertTokenizer\nfrom utils.character_cnn import CharacterIndexer\n\ntext = \"CharacterBERT attends to each token's characters\"\nbert_tokenizer = BertTokenizer.from_pretrained('bert-base-uncased')\ntokenized_text = bert_tokenizer.basic_tokenizer.tokenize(text) #: this is NOT wor
…
