…
Simple_GAN.ipynb contains a simple and somewhat naive implementation of a GAN.  The class of doodles we chose to use are cats (go figure).  An randomly chosen example cat image:

![cat](https://user-images.githubusercontent.com/14242505/50039091-fef49880-ffe0-11e8-8e89-0e17b910cfeb.png)


The generator is composed of 5 dense layers separated by LeakyReLUs.  The descriminator is similar, except it has 4 dense layers.  The architecture is shown below.

```
Layer (type)                 Output Shape              Param #   
=================================================================
dense_1 (Dense)              (None, 1024)              803840    
_________________________________________________________________
leaky_re_lu_1 (LeakyReLU)    (None, 1024)              0         
_________________________________________________________________
dropout_1 (Dropout)          (None, 1024)              0         
_________________________________________________________________
dense_2 (Dense)              (None, 512)               524800    
_________________________________________________________________
leaky_re_lu_2 (LeakyReLU)    (None, 512)               0         
_________________________________________________________________
dropout_2 (Dropout)          (None, 512)               0         
_________________________________________________________________
dense_3 (Dense)              (None, 256)               131328    
_________________________________________________________________
leaky_re_lu_3 (LeakyReLU)    (None, 256)               0         
_________________________________________________________________
dropout_3 (Dropout)          (None, 256)               0         
_________________________________________________________________
dense_4 (Dense)              (None, 1)                 257       
=================================================================
Total params: 1,460,225
Trainable params: 1,460,225
Non-trainable params: 0
_________________________________________________________________
_________________________________________________________________
Layer (type)                 Output Shape              Param #   
=================================================================
dense_5 (Dense)              (None, 256)               25856     
_________________________________________________________________
leaky_re_lu_4 (LeakyReLU)    (None, 256)               0         
_________________________________________________________________
dense_6 (Dense)              (None, 512)               131584    
_________________________________________________________________
leaky_re_lu_5 (LeakyReLU)    (None, 512)               0         
_________________________________________________________________
dense_7 (Dense)              (None, 1024)              525312    
_________________________________________________________________
leaky_re_lu_6 (LeakyReLU)    (None, 1024)              0         
_________________________________________________________________
dense_8 (Dense)              (None, 2048)              2099200   
_________________________________________________________________
leaky_re_lu_7 (LeakyReLU)    (None, 2048)              0         
_________________________________________________________________
dense_9 (Dense)              (None, 784)               1606416   
=================================================================
Total params: 4,388,368
Trainable params: 4,388,368
Non-trainable params: 0
_________________________________________________________________
_________________________________________________________________
Layer (type)                 Output Shape              Param #   
=================================================================
input_3 (InputLayer)         (None, 100)               0         
_________________________________________________________________
model_2 (Model)              (None, 784)               4388368   
_________________________________________________________________
model_1 (Model)              (None, 1)                 1460225   
=================================================================
Total params: 5,848,593
Trainable params: 4,388,368
Non-trainable params: 1,460,225
_________________________________________________________________
```

Initially, the generated cat images aren't very good.

![simple_bad](https://user-images.githubusercontent.com/14242505/50039096-12076880-ffe1-11e8-90d9-082f49ab66a2.png)

After many epochs of training, they get much better.
…
![simple_loss](https://user-images.githubusercontent.com/14242505/50039098-1b90d080-ffe1-11e8-971e-c731a34dd427.png)


# DCGAN

The DCGAN performs much better.  DCGAN.ipynb contains a more sophisticated implementation of a GAN.  The class of doodles we chose to use are also cats for comparison reasons.  The architecture is similar with convolutional layers and batch normalization layers added in.  The architecture is shown below.

```
_________________________________________________________________
Layer (type)                 Output Shape              Param #   
=================================================================
conv2d_66 (Conv2D)           (None, 14, 14, 64)        1664      
_________________________________________________________________
leaky_re_lu_59 (LeakyReLU)   (None, 14, 14, 64)        0         
_________________________________________________________________
dropout_37 (Dropout)         (None, 14, 14, 64)        0         
_________________________________________________________________
conv2d_67 (Conv2D)           (None, 7, 7, 128)         204928    
_________________________________________________________________
leaky_re_lu_60 (LeakyReLU)   (None, 7, 7, 128)         0         
_________________________________________________________________
dropout_38 (Dropout)         (None, 7, 7, 128)         0         
_________________________________________________________________
flatten_19 (Flatten)         (None, 6272)              0         
_________________________________________________________________
dense_32 (Dense)             (None, 1)                 6273      
=================================================================
Total params: 212,865
Trainable params: 212,865
Non-trainable params: 0
_________________________________________________________________
_________________________________________________________________
Layer (type)                 Output Shape              Param #   
=================================================================
dense_33 (Dense)             (None, 6272)              633472    
_________________________________________________________________
reshape_14 (Reshape)         (None, 7, 7, 128)         0         
_________________________________________________________________
batch_normalization_26 (Batc (None, 7, 7, 128)         512       
_________________________________________________________________
up_sampling2d_22 (UpSampling (None, 14, 14, 128)       0         
_________________________________________________________________
conv2d_68 (Conv2D)           (None, 14, 14, 128)       147584    
_________________________________________________________________
leaky_re_lu_61 (LeakyReLU)   (None, 14, 14, 128)       0         
_________________________________________________________________
batch_normalization_27 (Batc (None, 14, 14, 128)       512       
_________________________________________________________________
up_sampling2d_23 (UpSampling (None, 28, 28, 128)       0         
_________________________________________________________________
conv2d_69 (Conv2D)           (None, 28, 28, 64)        73792     
_________________________________________________________________
leaky_re_lu_62 (LeakyReLU)   (None, 28, 28, 64)        0         
_________________________________________________________________
batch_normalization_28 (Batc (None, 28, 28, 64)        256       
_________________________________________________________________
conv2d_70 (Conv2D)           (None, 28, 28, 1)         577       
=================================================================
Total params: 856,705
Trainable params: 856,065
Non-trainable params: 640
_________________________________________________________________
_________________________________________________________________
Layer (type)                 Output Shape              Param #   
=================================================================
input_41 (InputLayer)        (None, 100)               0         
_________________________________________________________________
Generator (Model)            (None, 28, 28, 1)         856705    
_________________________________________________________________
Discriminator (Model)        (None, 1)                 212865    
=================================================================
Total params: 1,069,570
Trainable params: 856,065
Non-trainable params: 213,505
_________________________________________________________________
```

At first, the generated cat drawings don't look very good.

![bad_conv](https://user-images.githubusercontent.com/14242505/50039234-454af700-ffe3-11e8-9d6d-0e258adc18d3.png)

After training many epochs, it gets considerably better!  
…
