…
changes during the auto mode.
	

### 4. Model Architecture and Training Strategy
There has been prior work done to predict vehicle steering angles from camera images, such as NVIDIA's "End to End Learning for Self-Driving Cars", and comma.ai's steering angle prediction model. Here, I used the comma.ai's steering angle prediction model.

#### Model Architecture
The CNN model that I used here has the following layers and information:

Layer (type)                 Output Shape              Param #
   
-----------------------------------------------------------------

lambda_1 (Lambda)            (None, 160, 320, 3)       0         
Scale all image pixel values 
within the range [-1, 1]

-----------------------------------------------------------------

conv2d_1 (Conv2D)            (None, 40, 80, 16)        3088  
(8x8 kernel, same padding)

-----------------------------------------------------------------

elu_1 (ELU)                  (None, 40, 80, 16)        0       

-----------------------------------------------------------------

conv2d_2 (Conv2D)            (None, 20, 40, 32)        12832 
(5x5 kernel, same padding)    

-----------------------------------------------------------------

elu_2 (ELU)                  (None, 20, 40, 32)        0         

-----------------------------------------------------------------

conv2d_3 (Conv2D)            (None, 10, 20, 64)        51264
(5x5 kernel, same padding)    

-----------------------------------------------------------------

flatten_1 (Flatten)          (None, 12800)             0         

-----------------------------------------------------------------

dropout_1 (Dropout)          (None, 12800)             0
(0.2 drop)       

-----------------------------------------------------------------

elu_3 (ELU)                  (None, 12800)             0         

-----------------------------------------------------------------

dense_1 (Dense)              (None, 512)               6554112   

-----------------------------------------------------------------

dropout_2 (Dropout)          (None, 512)               0
(0.5 drop)         

-----------------------------------------------------------------

elu_4 (ELU)                  (None, 512)               0         

-----------------------------------------------------------------

dense_2 (Dense)              (None, 1)                 513       

-----------------------------------------------------------------

Total params: 6,621,809

Trainable params: 6,621,809

Non-trainable params: 0

The model follows the standard design practice for CNNs: the base convolutional layers' height and width progressively decrease while its depth increases, and the final layers are a series of fully-connected layers. Dropout layers were included right before the fully-connected layers, to help reduce overfitting.
…
