…
  "description": [
    {
      "confidence": [
        1
      ],
      "excerpt": "```python\ndevice = torch.device('cuda' if torch.cuda.is_available() else 'cpu')\nmodel = ResNetUNet(n_class=6)\nmodel = model.to(device)\n\n#: check keras-like model summary using torchsummary\nfrom torchsummary import summary\nsummary(model, input_size=(3, 224, 224))\n```\n\n    ----------------------------------------------------------------\n            Layer (type)               Output Shape         Param #\n    ================================================================\n                Conv2d-1         [-1, 64, 224, 224]           1,792\n                  ReLU-2         [-1, 64, 224, 224]               0\n                Conv2d-3         [-1, 64, 224, 224]          36,928\n                  ReLU-4         [-1, 64, 224, 224]               0\n                Conv2d-5         [-1, 64, 112, 112]           9,408\n           BatchNorm2d-6         [-1, 64, 112, 112]             128\n                  ReLU-7         [-1, 64, 112, 112]               0\n             MaxPool2d-8           [-1, 64, 56, 56]               0\n                Conv2d-9           [-1, 64, 56, 56]           4,096\n          BatchNorm2d-10           [-1, 64, 56, 56]             128\n                 ReLU-11           [-1, 64, 56, 56]               0\n               Conv2d-12           [-1, 64, 56, 56]          36,864\n          BatchNorm2d-13           [-1, 64, 56, 56]             128\n                 ReLU-14           [-1, 64, 56, 56]               0\n               Conv2d-15          [-1, 256, 56, 56]          16,384\n          BatchNorm2d-16          [-1, 256, 56, 56]             512\n               Conv2d-17          [-1, 256, 56, 56]          16,384\n          BatchNorm2d-18          [-1, 256, 56, 56]             512\n                 ReLU-19          [-1, 256, 56, 56]               0\n           Bottleneck-20          [-1, 256, 56, 56]               0\n               Conv2d-21           [-1, 64, 56, 56]          16,384\n          BatchNorm2d-22           [-1, 64, 56, 56]             128\n                 ReLU-23           [-1, 64, 56, 56]               0\n               Conv2d-24           [-1, 64, 56, 56]          36,864\n          BatchNorm2d-25           [-1, 64, 56, 56]             128\n                 ReLU-26           [-1, 64, 56, 56]               0\n               Conv2d-27          [-1, 256, 56, 56]          16,384\n          BatchNorm2d-28          [-1, 256, 56, 56]             512\n                 ReLU-29          [-1, 256, 56, 56]               0\n           Bottleneck-30          [-1, 256, 56, 56]               0\n               Conv2d-31           [-1, 64, 56, 56]          16,384\n          BatchNorm2d-32           [-1, 64, 56, 56]             128\n                 ReLU-33           [-1, 64, 56, 56]               0\n               Conv2d-34           [-1, 64, 56, 56]          36,864\n          BatchNorm2d-35           [-1, 64, 56, 56]             128\n                 ReLU-36           [-1, 64, 56, 56]               0\n               Conv2d-37          [-1, 256, 56, 56]          16,384\n          BatchNorm2d-38          [-1, 256, 56, 56]             512\n                 ReLU-39          [-1, 256, 56, 56]               0\n           Bottleneck-40          [-1, 256, 56, 56]               0\n               Conv2d-41          [-1, 128, 56, 56]          32,768\n          BatchNorm2d-42          [-1, 128, 56, 56]             256\n                 ReLU-43          [-1, 128, 56, 56]               0\n               Conv2d-44          [-1, 128, 28, 28]         147,456\n          BatchNorm2d-45          [-1, 128, 28, 28]             256\n                 ReLU-46          [-1, 128, 28, 28]               0\n               Conv2d-47          [-1, 512, 28, 28]          65,536\n          BatchNorm2d-48          [-1, 512, 28, 28]           1,024\n               Conv2d-49          [-1, 512, 28, 28]         131,072\n          BatchNorm2d-50          [-1, 512, 28, 28]           1,024\n                 ReLU-51          [-1, 512, 28, 28]               0\n           Bottleneck-52          [-1, 512, 28, 28]               0\n               Conv2d-53          [-1, 128, 28, 28]          65,536\n          BatchNorm2d-54          [-1, 128, 28, 28]             256\n                 ReLU-55          [-1, 128, 28, 28]               0\n               Conv2d-56          [-1, 128, 28, 28]         147,456\n          BatchNorm2d-57          [-1, 128, 28, 28]             256\n                 ReLU-58          [-1, 128, 28, 28]               0\n               Conv2d-59          [-1, 512, 28, 28]          65,536\n          BatchNorm2d-60          [-1, 512, 28, 28]           1,024\n                 ReLU-61          [-1, 512, 28, 28]               0\n           Bottleneck-62          [-1, 512, 28, 28]               0\n               Conv2d-63          [-1, 128, 28, 28]          65,536\n          BatchNorm2d-64          [-1, 128, 28, 28]             256\n                 ReLU-65          [-1, 128, 28, 28]               0\n               Conv2d-66          [-1, 128, 28, 28]         147,456\n          BatchNorm2d-67          [-1, 128, 28, 28]             256\n                 ReLU-68          [-1, 128, 28, 28]               0\n               Conv2d-69          [-1, 512, 28, 28]          65,536\n          BatchNorm2d-70          [-1, 512, 28, 28]           1,024\n                 ReLU-71          [-1, 512, 28, 28]               0\n           Bottleneck-72          [-1, 512, 28, 28]               0\n               Conv2d-73          [-1, 128, 28, 28]          65,536\n          BatchNorm2d-74          [-1, 128, 28, 28]             256\n                 ReLU-75          [-1, 128, 28, 28]               0\n               Conv2d-76          [-1, 128, 28, 28]         147,456\n          BatchNorm2d-77          [-1, 128, 28, 28]             256\n                 ReLU-78          [-1, 128, 28, 28]               0\n               Conv2d-79          [-1, 512, 28, 28]          65,536\n          BatchNorm2d-80          [-1, 512, 28, 28]           1,024\n                 ReLU-81          [-1, 512, 28, 28]               0\n           Bottleneck-82          [-1, 512, 28, 28]               0\n               Conv2d-83          [-1, 256, 28, 28]         131,072\n          BatchNorm2d-84          [-1, 256, 28, 28]             512\n                 ReLU-85          [-1, 256, 28, 28]               0\n               Conv2d-86          [-1, 256, 14, 14]         589,824\n          BatchNorm2d-87          [-1, 256, 14, 14]             512\n                 ReLU-88          [-1, 256, 14, 14]               0\n               Conv2d-89         [-1, 1024, 14, 14]         262,144\n          BatchNorm2d-90         [-1, 1024, 14, 14]           2,048\n               Conv2d-91         [-1, 1024, 14, 14]         524,288\n          BatchNorm2d-92         [-1, 1024, 14, 14]           2,048\n                 ReLU-93         [-1, 1024, 14, 14]               0\n           Bottleneck-94         [-1, 1024, 14, 14]               0\n               Conv2d-95          [-1, 256, 14, 14]         262,144\n          BatchNorm2d-96          [-1, 256, 14, 14]             512\n                 ReLU-97          [-1, 256, 14, 14]               0\n               Conv2d-98          [-1, 256, 14, 14]         589,824\n          BatchNorm2d-99          [-1, 256, 14, 14]             512\n                ReLU-100          [-1, 256, 14, 14]               0\n              Conv2d-101         [-1, 1024, 14, 14]         262,144\n         BatchNorm2d-102         [-1, 1024, 14, 14]           2,048\n                ReLU-103         [-1, 1024, 14, 14]               0\n          Bottleneck-104         [-1, 1024, 14, 14]               0\n              Conv2d-105          [-1, 256, 14, 14]         262,144\n         BatchNorm2d-106          [-1, 256, 14, 14]             512\n                ReLU-107          [-1, 256, 14, 14]               0\n              Conv2d-108          [-1, 256, 14, 14]         589,824\n         BatchNorm2d-109          [-1, 256, 14, 14]             512\n                ReLU-110          [-1, 256, 14, 14]               0\n              Conv2d-111         [-1, 1024, 14, 14]         262,144\n         BatchNorm2d-112         [-1, 1024, 14, 14]           2,048\n                ReLU-113         [-1, 1024, 14, 14]               0\n          Bottleneck-114         [-1, 1024, 14, 14]               0\n              Conv2d-115          [-1, 256, 14, 14]         262,144\n         BatchNorm2d-116          [-1, 256, 14, 14]             512\n                ReLU-117          [-1, 256, 14, 14]               0\n              Conv2d-118          [-1, 256, 14, 14]         589,824\n         BatchNorm2d-119          [-1, 256, 14, 14]             512\n                ReLU-120          [-1, 256, 14, 14]               0\n              Conv2d-121         [-1, 1024, 14, 14]         262,144\n         BatchNorm2d-122         [-1, 1024, 14, 14]           2,048\n                ReLU-123         [-1, 1024, 14, 14]               0\n          Bottleneck-124         [-1, 1024, 14, 14]               0\n              Conv2d-125          [-1, 256, 14, 14]         262,144\n         BatchNorm2d-126          [-1, 256, 14, 14]             512\n                ReLU-127          [-1, 256, 14, 14]               0\n              Conv2d-128          [-1, 256, 14, 14]         589,824\n         BatchNorm2d-129          [-1, 256, 14, 14]             512\n                ReLU-130          [-1, 256, 14, 14]               0\n              Conv2d-131         [-1, 1024, 14, 14]         262,144\n         BatchNorm2d-132         [-1, 1024, 14, 14]           2,048\n                ReLU-133         [-1, 1024, 14, 14]               0\n          Bottleneck-134         [-1, 1024, 14, 14]               0\n              Conv2d-135          [-1, 256, 14, 14]         262,144\n         BatchNorm2d-136          [-1, 256, 14, 14]             512\n                ReLU-137          [-1, 256, 14, 14]               0\n              Conv2d-138          [-1, 256, 14, 14]         589,824\n         BatchNorm2d-139          [-1, 256, 14, 14]             512\n                ReLU-140          [-1, 256, 14, 14]               0\n              Conv2d-141         [-1, 1024, 14, 14]         262,144\n         BatchNorm2d-142         [-1, 1024, 14, 14]           2,048\n                ReLU-143         [-1, 1024, 14, 14]               0\n          Bottleneck-144         [-1, 1024, 14, 14]               0\n              Conv2d-145          [-1, 512, 14, 14]         524,288\n         BatchNorm2d-146          [-1, 512, 14, 14]           1,024\n                ReLU-147          [-1, 512, 14, 14]               0\n              Conv2d-148            [-1, 512, 7, 7]       2,359,296\n         BatchNorm2d-149            [-1, 512, 7, 7]           1,024\n                ReLU-150            [-1, 512, 7, 7]               0\n              Conv2d-151           [-1, 2048, 7, 7]       1,048,576\n         BatchNorm2d-152           [-1, 2048, 7, 7]           4,096\n              Conv2d-153           [-1, 2048, 7, 7]       2,097,152\n         BatchNorm2d-154           [-1, 2048, 7, 7]           4,096\n                ReLU-155           [-1, 2048, 7, 7]               0\n          Bottleneck-156           [-1, 2048, 7, 7]               0\n              Conv2d-157            [-1, 512, 7, 7]       1,048,576\n         BatchNorm2d-158            [-1, 512, 7, 7]           1,024\n                ReLU-159            [-1, 512, 7, 7]               0\n              Conv2d-160            [-1, 512, 7, 7]       2,359,296\n         BatchNorm2d-161            [-1, 512, 7, 7]           1,024\n                ReLU-162            [-1, 512, 7, 7]               0\n              Conv2d-163           [-1, 2048, 7, 7]       1,048,576\n         BatchNorm2d-164           [-1, 2048, 7, 7]           4,096\n                ReLU-165           [-1, 2048, 7, 7]               0\n          Bottleneck-166           [-1, 2048, 7, 7]               0\n              Conv2d-167            [-1, 512, 7, 7]       1,048,576\n         BatchNorm2d-168            [-1, 512, 7, 7]           1,024\n                ReLU-169            [-1, 512, 7, 7]               0\n              Conv2d-170            [-1, 512, 7, 7]       2,359,296\n         BatchNorm2d-171            [-1, 512, 7, 7]           1,024\n                ReLU-172            [-1, 512, 7, 7]               0\n              Conv2d-173           [-1, 2048, 7, 7]       1,048,576\n         BatchNorm2d-174           [-1, 2048, 7, 7]           4,096\n                ReLU-175           [-1, 2048, 7, 7]               0\n          Bottleneck-176           [-1, 2048, 7, 7]               0\n              Conv2d-177           [-1, 1024, 7, 7]       2,098,176\n                ReLU-178           [-1, 1024, 7, 7]               0\n            Upsample-179         [-1, 1024, 14, 14]               0\n              Conv2d-180          [-1, 512, 14, 14]         524,800\n                ReLU-181          [-1, 512, 14, 14]               0\n              Conv2d-182          [-1, 512, 14, 14]       7,078,400\n                ReLU-183          [-1, 512, 14, 14]               0\n            Upsample-184          [-1, 512, 28, 28]               0\n              Conv2d-185          [-1, 512, 28, 28]         262,656\n                ReLU-186          [-1, 512, 28, 28]               0\n              Conv2d-187          [-1, 512, 28, 28]       4,719,104\n                ReLU-188          [-1, 512, 28, 28]               0\n            Upsample-189          [-1, 512, 56, 56]               0\n              Conv2d-190          [-1, 256, 56, 56]          65,792\n                ReLU-191          [-1, 256, 56, 56]               0\n              Conv2d-192          [-1, 256, 56, 56]       1,769,728\n                ReLU-193          [-1, 256, 56, 56]               0\n            Upsample-194        [-1, 256, 112, 112]               0\n              Conv2d-195         [-1, 64, 112, 112]           4,160\n                ReLU-196         [-1, 64, 112, 112]               0\n              Conv2d-197        [-1, 128, 112, 112]         368,768\n                ReLU-198        [-1, 128, 112, 112]               0\n            Upsample-199        [-1, 128, 224, 224]               0\n              Conv2d-200         [-1, 64, 224, 224]         110,656\n                ReLU-201         [-1, 64, 224, 224]               0\n              Conv2d-202          [-1, 6, 224, 224]             390\n    ================================================================\n    Total params: 40,549,382\n    Trainable params: 40,549,382\n    Non-trainable params: 0\n    ----------------------------------------------------------------\n\n\n",
      "technique": "Header extraction"
    },
    {
      "confidence": [
        0.9810939666202909
      ],
      "excerpt": "This repository contains simple PyTorch implementations of U-Net and FCN, which are deep learning segmentation methods proposed by Ronneberger et al. and Long et al. \n",
…
