…
SIFICATION #:#:#:#:  config = BertConfig.from_pretrained('bert-base-uncased'  num_labels=2)  #: binary classification model = BertForSequenceClassification(config=config)  model.bert.embeddings.word_embeddings  #: wordpiece embeddings >>> Embedding(30522  768  padding_idx=0)  #:#:#:#: REPLACING BERT WITH CHARACTER_BERT #:#:#:#:  character_bert_model = CharacterBertModel.from_pretrained(     './pretrained-models/medical_character_bert/') model.bert = character_bert_model  model.bert.embeddings.word_embeddings  #: wordpieces are replaced with a CharacterCNN >>> CharacterCNN(         (char_conv_0): Conv1d(16  32  kernel_size=(1 )  stride=(1 ))         (char_conv_1): Conv1d(16  32  kernel_size=(2 )  stride=(1 ))         (char_conv_2): Conv1d(16  64  kernel_size=(3 )  stride=(1 ))         (char_conv_3): Conv1d(16  128  kernel_size=(4 )  stride=(1 ))         (char_conv_4): Conv1d(16  256  kernel_size=(5 )  stride=(1 ))         (char_conv_5): Conv1d(16  512  kernel_size=(6 )  stride=(1 ))         (char_conv_6): Conv1d(16  1024  kernel_size=(7 )  stride=(1 ))         (_highways): Highway(         (_layers): ModuleList(             (0): Linear(in_features=2048  out_features=4096  bias=True)             (1): Linear(in_features=2048  out_features=4096  bias=True)         )         )         (_projection): Linear(in_features=2048  out_features=768  bias=True)     )  #:#:#:#: PREPARING RAW TEXT #:#:#:#:  from transformers import BertTokenizer from utils.character_cnn import CharacterIndexer  text = ""CharacterBERT attends to each token's characters"" bert_tokenizer = BertTokenizer.from_pretrained('bert-base-uncased') tokenized_text = bert_tokenizer.basic_tokenizer.tokenize(text) #: this is NOT wordpiece tok
…
