…
e datasets, ELUs shows to be superior in training time and accuracy compared to the more common <i>Rectified Linear Units</i> (ReLUs) and <i>Leaky Rectified Linear Units</i> (LeakyReLUs) [2]. For the output layer, the activation function Softmax was applied instead of ELU.
<div style="padding:10px; background-color:#f8f8f8; text-align:center; page-break-inside: avoid;">
	<pre style="font-size:90%">
Layer (type)                        Output Shape                    Param #     
================================================================================
conv2d_1 (Conv2D)                   (None, 124, 124, 64)            1664        
________________________________________________________________________________
elu_1 (ELU)                         (None, 124, 124, 64)            0           
________________________________________________________________________________
max_pooling2d_1 (MaxPooling2D)      (None, 62, 62, 64)              0           
________________________________________________________________________________
conv2d_2 (Conv2D)                   (None, 58, 58, 32)              51232       
________________________________________________________________________________
elu_2 (ELU)                         (None, 58, 58, 32)              0           
________________________________________________________________________________
max_pooling2d_2 (MaxPooling2D)      (None, 29, 29, 32)              0           
________________________________________________________________________________
flatten_1 (Flatten)                 (None, 26912)                   0           
________________________________________________________________________________
dense_1 (Dense)                     (None, 32)                      861216      
________________________________________________________________________________
elu_3 (ELU)                         (None, 32)                      0           
________________________________________________________________________________
dropout_1 (Dropout)                 (None, 32)                      0           
________________________________________________________________________________
dense_2 (Dense)                     (None, 16)                      528         
________________________________________________________________________________
elu_4 (ELU)                         (None, 16)                      0           
________________________________________________________________________________
dense_3 (Dense)                     (None, 2)                       34          
================================================================================
Total params: 914,674
Trainable params: 914,674
Non-trainable params: 0
________________________________________________________________________________
  </pre>
  <p style="font-size:90%; font-style:italic; text-align:center;">
    Figure 5: Architecure of the classifier
  </p>
</div>

The classifier was built using Keras version 2.2.5 for Python 3.6.8 and trained using GPU (Tesla K80) provided by Google Colab  [3], [4].
…
