…
  "dateCreated": {
    "confidence": [
      1.0
    ],
    "excerpt": "2019-11-26T22:09:40Z",
    "technique": "GitHub API"
  },
  "dateModified": {
    "confidence": [
      1.0
    ],
    "excerpt": "2021-05-25T15:56:26Z",
    "technique": "GitHub API"
  },
  "description": [
    {
      "confidence": [
        1
      ],
      "excerpt": "```sh \nModel: \"sequential_1\"\n_________________________________________________________________\nLayer (type)                 Output Shape              Param #:   \n=================================================================\nconv2d_1 (Conv2D)            (None, 224, 224, 64)      1792      \n_________________________________________________________________\nconv2d_2 (Conv2D)            (None, 224, 224, 64)      36928     \n_________________________________________________________________\nmax_pooling2d_1 (MaxPooling2 (None, 112, 112, 64)      0         \n_________________________________________________________________\nconv2d_3 (Conv2D)            (None, 112, 112, 128)     73856     \n_________________________________________________________________\nconv2d_4 (Conv2D)            (None, 112, 112, 128)     147584    \n_________________________________________________________________\nmax_pooling2d_2 (MaxPooling2 (None, 56, 56, 128)       0         \n_________________________________________________________________\nconv2d_5 (Conv2D)            (None, 56, 56, 256)       295168    \n_________________________________________________________________\nconv2d_6 (Conv2D)            (None, 56, 56, 256)       590080    \n_________________________________________________________________\nconv2d_7 (Conv2D)            (None, 56, 56, 256)       590080    \n_________________________________________________________________\nmax_pooling2d_3 (MaxPooling2 (None, 28, 28, 256)       0         \n_________________________________________________________________\nconv2d_8 (Conv2D)            (None, 28, 28, 512)       1180160   \n_________________________________________________________________\nconv2d_9 (Conv2D)            (None, 28, 28, 512)       2359808   \n_________________________________________________________________\nconv2d_10 (Conv2D)           (None, 28, 28, 512)       2359808   \n_________________________________________________________________\nmax_pooling2d_4 (MaxPooling2 (None, 14, 14, 512)       0         \n_________________________________________________________________\nconv2d_11 (Conv2D)           (None, 14, 14, 512)       2359808   \n_________________________________________________________________\nconv2d_12 (Conv2D)           (None, 14, 14, 512)       2359808   \n_________________________________________________________________\nconv2d_13 (Conv2D)           (None, 14, 14, 512)       2359808   \n_________________________________________________________________\nmax_pooling2d_5 (MaxPooling2 (None, 7, 7, 512)         0         \n_________________________________________________________________\nflatten_1 (Flatten)          (None, 25088)             0         \n_________________________________________________________________\ndense_1 (Dense)              (None, 4096)              102764544 \n_________________________________________________________________\ndense_2 (Dense)              (None, 4096)              16781312  \n_________________________________________________________________\ndense_3 (Dense)              (None, 2)                 8194      \n=================================================================\nTotal params: 134,268,738\nTrainable params: 134,268,738\nNon-trainable params: 0\n_________________________________________________________________\n```\n\n",
      "technique": "Header extraction"
    },
    {
      "confidence": [
        0.9294147286813356,
        0.8788649259819918,
        0.959515445833638,
        0.9719356556128929
…
